Exp4/scr/model.pth (torch, 244776 bytes, 8 tensors)

gc_inp.weight f4 [3703, 16]
-0.06432899 -0.028716948 -0.016962554 0.05671803 0.036733415 0.0071642585 0.015620152 -0.019056652
0.007351532 0.035306685 0.01428391 -0.038377445 0.10474542 -0.017429108 -0.02290604 -0.10868212
0.0886534 0.1790463 -0.18542661 -0.1274556 -0.030607395 0.13373525 0.066826545 -0.026402941
-0.34108496 0.026604604 -0.13246213 0.038382296 -0.1689674 -0.026051486 0.021517437 0.027023308
0.05570427 0.035049137 0.019436654 -0.04588162 -0.061360616 0.014217578 0.05901414 -0.10900299
-0.029810796 0.072101235 -0.033238914 0.012564161 -0.048237413 0.058305606 -0.022253063 0.03222464
0.013903375 -0.031048762 0.07239804 -0.022292115 -0.053156592 -0.0662595 -0.02304252 -0.015650552
0.04980333 0.005300061 -0.026449015 -0.0007098821 -0.02335162 0.053180702 0.022856804 0.010411868
0.024688803 0.010297659 -0.006246832 -0.023698766 0.011238006 -0.01997029 -0.023720738 0.0032187083
-0.033196833 -0.0014375745 -0.0004509245 0.014541012 -0.027912771 0.014211753 -0.0057204403 0.024233164
0.051051896 -0.0026393868 0.015906835 -0.024686418 -0.00796219 -0.03475039 -0.022788925 0.032444343
-0.001217572 -0.012536377 -0.0105528105 0.005693796 -0.039485082 -0.0043360097 0.012173427 0.03342984
0.028540423 0.05861891 -0.014696188 -0.097999305 -0.004160152 0.026619919 0.009902841 0.0010419025
-0.13672625 -0.021712096 -0.06212223 0.08239984 -0.026819443 0.02277453 -0.074484006 -0.0021584772
0.039202955 0.021277413 -0.005348472 -0.120671146 -0.032020148 0.012909948 0.056975715 -0.16211383
-0.1260264 0.05892344 -0.07550748 0.057758898 -0.20244338 0.061950132 -0.03454542 0.045111813
0.22029294 -0.0066997414 0.07275121 0.04247112 -0.13386518 0.07114624 -0.07959936 -0.036123037
-0.066385515 -0.16673526 0.0075240796 -0.0121586975 0.022479506 -0.01137871 0.026860416 -0.067189395
0.17967102 -0.06741245 0.02302161 -0.07054563 -0.06666498 -0.09684573 -0.083179 0.03854921
0.05730001 -0.21197149 -0.061458267 0.10087523 -0.10797463 0.0121957725 -0.0896516 0.0896663
-0.01852122 -0.02269975 -0.00773162 0.012419501 -0.0389428 0.01802343 0.0057163844 -0.034217685
0.0028446026 0.024220739 -0.010916991 0.01437748 0.001054521 0.004866143 -0.012133478 -0.0324953
0.05960364 0.001387079 0.0647128 -0.16957475 0.029745525 -0.1267445 -0.122634895 0.11121958
0.09348344 -0.09375595 -0.13350308 -0.09882179 -0.07973033 -0.08325538 0.0844052 0.09812335
-0.075827755 -0.012123306 -0.045963187 0.024985777 0.0021741367 0.040954534 0.027241526 -0.015698044
-0.0052449093 -0.00762373 0.014547548 -0.0020190415 0.0657765 -0.017774217 -0.016927812 -0.04173898
-0.14241804 0.14251661 0.1555616 0.00038840913 -0.0049243774 -0.19013315 -0.025967885 0.3072841
0.041771684 -0.104469836 -0.04817968 -0.25798708 0.09752255 -0.022361478 0.054540846 -0.05531966
0.018080622 0.014775209 0.0024985012 -0.015525157 0.018862778 0.008729969 0.012064218 -0.007037523
-0.0032225759 0.0049358527 0.019153606 -0.02808979 -0.01304039 0.023773283 0.04556861 0.041842777
-0.013138432 -0.008432939 0.009495885 0.06024738 -0.010071306 0.01883657 0.03372911 -0.014979964
0.015362643 -0.017498448 -0.018116573 -0.00041225582 0.074343316 0.008184555 -0.009526262 -0.0329727
00000000: ebbe 83bd ce3f ebbc 0ef5 8abc 2a51 683d
00000010: c775 163d 28c2 ea3b aaeb 7f3c b21c 9cbc
00000020: 1fe5 f03b be9d 103d 1007 6a3c ab31 1dbd
00000030: c484 d63d 7dc7 8ebc 73a5 bbbc bb94 debd
00000040: ea8f b53d ea57 373e 79e0 3dbe b983 02be
00000050: 5cbc fabc e5f1 083e 5bdc 883d fb4a d8bc
00000060: b0a2 aebe e6f1 d93c 27a4 07be c136 1d3d
00000070: ca05 2dbe ed69 d5bc 5645 b03c fc5f dd3c
00000080: 292a 643d af8f 0f3d 9e39 9f3c 5eee 3bbd
00000090: 4555 7bbd d8f0 683c d0b8 713d f63c dfbd
000000a0: c535 f4bc d0a9 933d 8725 08bd e9d9 4d3c
000000b0: 9894 45bd dcd1 6e3d 0e4c b6bc fcfd 033d
000000c0: fbca 633c f959 febc 6c45 943d f49d b6bc
000000d0: baba 59bd 10b3 87bd abc3 bcbc 9635 80bc
000000e0: 94fe 4b3d 22ac ad3b 9bab d8bc 6217 3aba
000000f0: e64b bfbc 02d4 593d 313e bb3c 8a96 2a3c
00000100: 2c40 ca3c 83b7 283c 3ab2 ccbb ea23 c2bc
00000110: 9d1f 383c bc98 a3bc fe51 c2bc f7f0 523b
00000120: 67f9 07bd ff6c bcba 106a ecb9 6d3d 6e3c
00000130: 53a9 e4bc 6ad8 683c 8872 bbbb a184 c63c
00000140: cb1b 513d 90f9 2cbb 0d4f 823c 2c3b cabc
00000150: d873 02bc 6d56 0ebd d7af babc 5ce4 043d
00000160: f096 9fba 6065 4dbc b2e5 2cbc 0693 ba3b
00000170: 1cbb 21bd 1615 8ebb 0e73 473c baed 083d
00000180: 9bcd e93c 621a 703d 48c8 70bc dcb3 c8bd
00000190: e251 88bb 0412 da3c 873f 223c 7290 883a
000001a0: f701 0cbe 91dd b1bc e173 7ebd 3fc1 a83d
000001b0: 73b4 dbbc a791 ba3c 128b 98bd 3d75 0dbb
000001c0: 4793 203d f84d ae3c 3c42 afbb 6f22 f7bd
000001d0: 8f27 03bd 3f84 533c 5e5f 693d 2b01 26be
000001e0: 110d 01be b459 713d aaa3 9abd 9894 6c3d
000001f0: 514d 4fbe 6cbf 7d3d 807f 0dbd 2ac7 383d
00000200: 7994 613e 8189 dbbb 96fe 943d 32f6 2d3d
00000210: f413 09be 1fb5 913d fd04 a3bd c0f5 13bd
00000220: 21f5 87bd a6bc 2abe 8e8c f63b 4635 47bc
00000230: f126 b83c c56d 3abc 600a dc3c 989a 89bd
00000240: aefb 373e 8a0f 8abd d197 bc3c 3a7a 90bd
00000250: a687 88bd 0e57 c6bd c059 aabd c7e5 1d3d
00000260: 6ab3 6a3d 0e0f 59be aabb 7bbd ac97 ce3d
00000270: ce21 ddbd c7d0 473c 429b b7bd f7a2 b73d
00000280: d0b9 97bc d3f4 b9bc 8859 fdbb 2a7b 4b3c
00000290: 7c82 1fbd dfa5 933c 8250 bb3b d827 0cbd
000002a0: 836c 3a3b 926a c63c 2edd 32bc 868f 6b3c
000002b0: da37 8a3a 2b74 9f3b 7fcb 46bc cb19 05bd
000002c0: f222 743d a6ce b53a 2588 843d 01a5 2dbe
000002d0: e3ac f33c 4fc9 01be 0128 fbbd 17c7 e33d
000002e0: 3f74 bf3d 1f03 c0bd 08b5 08be 1463 cabd
000002f0: a849 a3bd cc81 aabd a2dc ac3d e5f4 c83d
00000300: 954b 9bbd d5a0 46bc e543 3cbd f9ae cc3c
00000310: f67b 0e3b f1bf 273d 9f29 df3c 2f99 80bc
00000320: 7ddd abbb 7cd0 f9bb d758 6e3c e551 04bb
00000330: d4b5 863d 3c9b 91bc 32ac 8abc 7ef6 2abd
00000340: 09d6 11be e0ef 113e 8a4b 1f3e 64a3 cb39
00000350: ac5c a1bb 44b2 42be 9aba d4bc 5754 9d3e
00000360: c918 2b3d 48f4 d5bd 0e58 45bd e216 84be
00000370: e7b9 c73d 6b2f b7bc 3966 5f3d de96 62bd
00000380: d01d 943c b813 723c e5bd 233b 3a5d 7ebc
00000390: 1d86 9a3c 2508 0f3c ffa8 453c 069b e6bb
000003a0: da31 53bb efbc a13b 06e8 9c3c 8f1c e6bc
000003b0: 5ca7 55bc 30c0 c23c 27a6 3a3d 5563 2b3d
000003c0: 9442 57bc 4f2a 0abc a194 1b3c f5c5 763d
000003d0: 1e02 25bc 274f 9a3c 8927 0a3d 866e 75bc
000003e0: 98b3 7b3c e858 8fbc 3569 94bc 0a24 d8b9
000003f0: 4f41 983d 8318 063c 0a14 1cbc 620e 07bd

gc_inp.bias f4 [16]
0.0019433019 -0.0049765217 0.019240147 0.010931009 0.00525781 0.0051521724 -0.018993674 0.0021721404
-0.013333061 -0.0018646732 0.011452558 -0.004980966 0.0061286255 -0.003306347 0.0139512 0.00056136027
00000000: 64b6 fe3a 1712 a3bb 839d 9d3c fa17 333c
00000010: b549 ac3b 8ed3 a83b 9f98 9bbc 785a 0e3b
00000020: e972 5abc 0d68 f4ba 83a3 3b3c 5f37 a3bb
00000030: a3d2 c83b 4caf 58bb 9393 643c 4028 133a

gc_hids.0.weight f4 [16, 16]
0.26755044 0.21292417 0.12838069 -0.13547358 -0.19006799 -0.08706138 -0.068433456 -0.18442136
-0.037433382 -0.02339116 0.18015788 0.110683165 -0.16512808 -0.23004279 -0.10350771 -0.2691276
0.06452324 -0.06833492 -0.13645193 -0.12259595 0.06528854 -0.09410639 -0.1545986 -0.06780023
0.45208028 0.27255884 -0.21653649 0.16695552 0.02686208 -0.030012213 0.33535972 -0.05134657
-0.04682231 -0.055761065 -0.015101025 0.056006376 -0.09692884 0.05082611 0.00829071 -0.15735458
-0.030220516 -0.20326933 0.22409211 -0.31890762 0.16518623 -0.052596338 0.0772298 -0.11469697
-0.33450317 0.05091394 0.3597322 0.021847699 0.22868961 0.21518204 0.39942458 -0.044648148
-0.16676705 -0.18406868 0.006294613 -0.09090992 0.18081504 0.30121148 -0.0683756 0.0861413
0.011691061 -0.1530859 -0.24267583 -0.29531458 0.151363 -0.08689627 -0.12899767 0.15369256
0.39069587 0.02407879 -0.3900848 -0.032758366 0.27104637 -0.21988966 0.088193186 0.08520352
-0.033289038 0.0017336034 0.008462374 0.14870863 -0.00312669 0.22326402 0.0038937759 0.40110844
0.05660712 0.3347959 -0.06652438 0.10485412 0.017093094 0.19927391 -0.11228875 0.42562366
-0.12799367 -0.058822975 0.11364202 0.19832852 0.016798247 0.029454952 0.053262927 0.094999775
0.09479811 0.29952866 -0.009340907 0.14306985 0.039115645 0.18581842 0.077344716 0.1657125
0.057923466 0.055028517 -0.18968166 -0.087324455 0.13041821 -0.084753506 -0.105258055 -0.10029159
0.034437366 -0.094859205 -0.017142203 0.02419063 0.078988746 -0.18371321 -0.06384578 -0.14384833
-0.078314885 -0.060988884 0.11133087 -0.02230121 -0.104462996 0.09180616 0.15227525 -0.1771061
-0.25459573 -0.41543972 0.053587027 -0.28753152 0.27580652 -0.03882592 -0.06255494 -0.12036182
-0.020803101 -0.35038996 0.15544158 0.31654087 -0.10670425 0.28811094 0.005223848 0.029777275
0.074391805 -0.027975585 0.060782675 -0.26118168 0.082954064 0.19876689 0.23178501 0.1930626
-0.010379977 -0.22783802 -0.108253784 0.12074298 -0.12771687 0.28349522 0.011245297 0.13913697
0.015328939 -0.17868343 -0.27311876 -0.1955159 0.26771775 0.07892992 0.058850434 0.22633363
0.030208841 0.35396868 0.043238442 0.02332332 -0.3266403 -0.10282896 -0.018217064 0.19349366
-0.17030255 0.09139691 0.21890597 0.19387326 -0.32259202 -0.13507582 -0.4625814 0.098373145
-0.32490274 -0.037855703 0.12875575 0.10677672 0.26234245 0.040595 0.23676676 0.08693753
-0.21477133 0.09048185 -0.22422078 0.10725 0.14433366 0.22866198 0.087629326 0.040968943
0.071735084 -0.12057832 0.18977834 0.2027824 -0.089088194 0.2716103 -0.036767002 0.02196224
0.058402505 -0.026794078 0.36315447 -0.18867126 -0.08794793 0.18805575 0.10238379 0.09730306
0.08582676 -0.3882142 -0.17028534 0.014133326 -0.011501676 0.043554444 -0.16969737 -0.17427404
0.16290063 -0.30906284 0.0051554167 -0.3308041 0.28223547 -0.037787516 0.37176836 -0.12801912
0.363178 -0.011416835 -0.0530566 -0.27268767 -0.32783005 -0.11954987 -0.32478654 -0.15558544
0.21831807 -0.22227919 0.07045383 -0.15034166 0.029987272 -0.16937652 0.008313415 -0.03727751
00000000: 5ffc 883e cb08 5a3e 3a76 033e 96b9 0abe
00000010: 2fa1 42be 3d4d b2bd d726 8cbd f4d8 3cbe
00000020: bf53 19bd d19e bfbc 4f7b 383e dbad e23d
00000030: 5617 29be 5690 6bbe dafb d3bd 18cb 89be
00000040: c324 843d 2ef3 8bbd 0eba 0bbe 9613 fbbd
00000050: 00b6 853d daba c0bd 184f 1ebe d9da 8abd
00000060: 1177 e73e d58c 8b3e bebb 5dbe 63f6 2a3e
00000070: dd0d dc3c 2cdc f5bc 45b4 ab3e c850 52bd
00000080: c0c8 3fbd b765 64bd 4a6a 77bc f166 653d
00000090: a182 c6bd 0a2f 503d c2d5 073c 8f21 21be
000000a0: 0491 f7bc d625 50be 6778 653e dc47 a3be
000000b0: 9426 293e 426f 57bd a82a 9e3d 3fe6 eabd
000000c0: 0044 abbe 238b 503d d22e b83e f2f9 b23c
000000d0: 9c2d 6a3e ae58 5c3e 6181 cc3e fae0 36bd
000000e0: fbc4 2abe 807c 3cbe 0a43 ce3b fb2e babd
000000f0: 9427 393e 6438 9a3e 8208 8cbd da6a b03d
00000100: dd8b 3f3c 8dc2 1cbe 0380 78be 7933 97be
00000110: e7fe 1a3e acf6 b1bd f717 04be 9561 1d3e
00000120: 4a09 c83e e240 c53c 32b9 c7be a32d 06bd
00000130: 97c6 8a3e c12a 61be a19e b43d 2f7f ae3d
00000140: 165a 08bd 143a e33a c5a5 0a3c 1347 183e
00000150: 27e9 4cbb 539f 643e b82e 7f3b 165e cd3e
00000160: dedc 673d 5e6a ab3e ef3d 88bd c2bd d63d
00000170: d106 8c3c 760e 4c3e a5f7 e5bd 58eb d93e
00000180: c610 03be 5cf0 70bd 26bd e83d a216 4b3e
00000190: 7a9c 893c 834b f13c 3a2a 5a3d 3e8f c23d
000001a0: 8325 c23d d25b 993e 9b0a 19bc e780 123e
000001b0: ba37 203d 2f47 3e3e e866 9e3d 8ab0 293e
000001c0: 2841 6d3d 9565 613d e93b 42be 2ad7 b2bd
000001d0: 5a8c 053e 3f93 adbd 8991 d7bd ad65 cdbd
000001e0: 320e 0d3d 8b45 c2bd ce6d 8cbc 6e2b c63c
000001f0: dac4 a13d 511f 3cbe 94c1 82bd fa4c 13be
00000200: 8e63 a0bd 7bcf 79bd 7001 e43d 07b1 b6bc
00000210: b2f0 d5bd de04 bc3d 0bee 1b3e 4d5b 35be
00000220: 5f5a 82be 84b4 d4be 127e 5b3d 5537 93be
00000230: 8336 8d3e ee07 1fbd ce1c 80bd 4280 f6bd
00000240: 446b aabc 5066 b3be 142c 1f3e a511 a23e
00000250: c287 dabd 4783 933e d02c ab3b 79ef f33c
00000260: bb5a 983d 0e2d e5bc 41f7 783d 9bb9 85be
00000270: d2e3 a93d 8c89 4b3e 0d59 6d3e 34b2 453e
00000280: c710 2abc 5f4e 69be 29b4 ddbd 1848 f73d
00000290: 36c8 02be 4926 913e 323e 383c ec79 0e3e
000002a0: 3b26 7b3c caf8 36be 39d6 8bbe 5235 48be
000002b0: 4d12 893e 03a6 a13d 270d 713d 01c4 673e
000002c0: 8878 f73c 623b b53e cb1a 313d 8c10 bf3c
000002d0: 663d a7be fd97 d2bd f43b 95bc 3423 463e
000002e0: cb63 2ebe 4e2e bb3d e328 603e b686 463e
000002f0: c82a a5be 5151 0abe 78d7 ecbe dc77 c93d
00000300: a759 a6be 950e 1bbd 8cd8 033e c1ad da3d
00000310: c051 863e f146 263d fc72 723e 4e0c b23d
00000320: 04ed 5bbe 8c4e b93d 229a 65be e3a5 db3d
00000330: 34cc 133e 5e26 6a3e 0177 b33d 0dcf 273d
00000340: d8e9 923d c4f1 f6bd 4155 423e 31a6 4f3e
00000350: df73 b6bd 8110 8b3e ff98 16bd 28ea b33c
00000360: 7737 6f3d 417f dbbc 62ef b93e 0a33 41be
00000370: 0b1e b4bd b091 403e 98ae d13d d446 c73d
00000380: f1c5 af3d 03c4 c6be 485f 2ebe 778f 673c
00000390: 8771 3cbc 2566 323d 26c5 2dbe e574 32be
000003a0: 6ccf 263e 7c3d 9ebe c5ee a83b 285f a9be
000003b0: 2b81 903e 15c7 1abd 6c58 be3e 7217 03be
000003c0: 78f2 b93e ad0d 3bbc e151 59bd b89d 8bbe
000003d0: 57d9 a7be 90d6 f4bd 6c4a a6be ca51 1fbe
000003e0: c68e 5f3e 289d 63be 194a 903d 2af3 19be
000003f0: dea7 f53c 0a71 2dbe fd34 083c 4db0 18bd

gc_hids.0.bias f4 [16]
0.008327618 -0.0013446866 0.006849808 0.008189956 0.00836876 0.008620639 -0.018264854 0.0022358093
-0.0028279163 0.007348862 -0.008638324 -0.00013081069 -0.003678888 -0.007876135 0.0024403627 -0.0007460794
00000000: 9070 083c 3240 b0ba 5b74 e03b 2a2f 063c
00000010: 201d 093c 953d 0d3c 2da0 95bc a886 123b
00000020: 9054 39bb b9ce f03b c287 0dbc 3a2a 09b9
00000030: 8019 71bb e80a 01bc 7eee 1f3b 8a94 43ba

gc_out.weight f4 [16, 6]
-0.5889238 0.5478538 0.47547817 0.1209559 -0.69576395 0.61541545 -0.6562554 0.56217885
0.33686954 -0.3696808 0.3918673 -0.67964005 0.3582201 0.110436514 -0.62765133 -0.6854369
0.5311727 0.40773708 0.3635306 -0.3788361 -0.42945972 -0.6277514 0.17328985 0.633419
0.25573638 -0.47708115 -0.10539396 0.6513742 0.67400074 -0.5385533 0.59447044 -0.49851647
-0.4879534 -0.5591866 -0.09294639 0.3906177 0.66050285 -0.11563894 -0.47072393 -0.23595837
0.734753 -0.5066683 0.13757354 -0.4620723 0.5860081 -0.48628205 0.37230232 0.06545341
-0.69923747 -0.6493906 0.19305262 0.21797764 -0.71478206 0.47016698 -0.64456224 -0.661241
0.62646157 -0.56364113 0.7246227 0.322988 -0.6072399 0.7198492 -0.67321754 -0.7349701
-0.3382457 0.53680867 -0.7517907 -0.1976138 0.60930574 -0.40627918 0.7174829 -0.49999654
0.5877296 -0.5748623 -0.5733895 0.58218294 -0.56531346 -0.71547955 0.55338895 -0.6661863
-0.5706806 -0.5655735 0.52177054 0.352144 -0.11419064 -0.715724 -0.6044113 0.41011202
-0.55662715 0.31424844 0.5835879 -0.6221798 0.3807114 -0.56933033 0.3915623 0.6551455
00000000: b6c3 16bf 2640 0c3f e071 f33e bab7 f73d
00000010: 961d 32bf de8b 1d3f 5b00 28bf f4ea 0f3f
00000020: 2a7a ac3e cd46 bdbe d5a2 c83e e4fc 2dbf
00000030: a068 b73e 8a2c e23d c2ad 20bf cb78 2fbf
00000040: effa 073f eac2 d03e af20 ba3e cef6 c1be
00000050: 25e2 dbbe 51b4 20bf e572 313e bf27 223f
00000060: e1ef 823e fb43 f4be cad8 d7bd 76c0 263f
00000070: 508b 2c3f a1de 09bf 372f 183f 8d3d ffbe
00000080: 07d5 f9be da26 0fbf ad5a bebd 0bff c73e
00000090: b716 293f 1cd4 ecbd ba02 f1be 129f 71be
000000a0: c618 3c3f 04b5 01bf 14e0 0c3e be94 ecbe
000000b0: a004 163f f6f9 f8be 699e be3e 700c 863d
000000c0: 3a01 33bf 763e 26bf 96af 453e 8835 5f3e
000000d0: f5fb 36bf bab9 f03e 0802 25bf 1747 29bf
000000e0: c95f 203f c94a 10bf e080 393f af5e a53e
000000f0: 1374 1bbf 0a48 383f fc57 2cbf 0027 3cbf
00000100: 8a2e adbe 4b6c 093f 5b75 40bf 465b 4abe
00000110: 76fb 1b3f d303 d0be f6ac 373f 8cff ffbe
00000120: 7275 163f 2d2a 13bf a7c9 12bf f109 153f
00000130: 62b8 10bf ab29 37bf e6aa 0d3f 2f8b 2abf
00000140: 2018 12bf 6dc9 10bf c192 053f 384c b43e
00000150: c8dc e9bd b039 37bf b3ba 1abf 34fa d13e
00000160: 1e7f 0ebf 2ce5 a03e 0466 153f 2d47 1fbf
00000170: 9bec c23e a2bf 11bf db7a c83e 9eb7 273f

gc_out.bias f4 [6]
0.025097031 0.53615516 0.05721315 0.08011494 0.30177358 0.029814042
00000000: 4a98 cd3c 7741 093f 5658 6a3d 4d13 a43d
00000010: 1182 9a3e 943c f43c

linear_out.weight f4 [121, 6]
0.33622533 -0.32878923 -0.1339998 -0.08680323 0.23230046 -0.16712755 0.13428468 0.31879646
0.39429897 0.1427877 0.07845724 -0.137719 0.1837579 -0.165682 0.28858954 -0.008214831
-0.3314973 0.32877272 -0.14915776 0.26709288 -0.075215995 0.38729364 0.38976806 0.25982285
-0.082662016 0.0019564033 -0.18205878 0.0010879636 0.37064815 0.06813753 0.29919982 -0.35097763
0.20149076 -0.36046636 0.14210665 -0.39883474 -0.07406843 -0.2943728 -0.20864785 0.40642565
-0.103515625 0.21920753 -0.13400641 -0.18411516 -0.39325157 -0.060497582 0.3960182 -0.17493626
-0.091820836 -0.3389469 -0.38793752 0.3927042 0.20117092 -0.3161177 0.30164778 -0.14006492
0.14055103 -0.018552333 0.07162714 -0.38628688 -0.1351625 -0.3298627 0.38585562 0.14287412
0.1544016 0.2243622 -0.26223332 0.31726044 0.25333166 0.1818456 0.39330333 0.09124136
-0.15143716 0.26690453 -0.01508671 -0.28974408 -0.009208322 -0.07780683 -0.33867705 -0.27282777
0.26799726 -0.032717258 0.121341884 -0.27775782 -0.090079874 0.09402913 0.39594942 -0.0144997835
0.059223652 -0.39268363 -0.23492272 -0.32860035 0.28531766 0.23104608 0.33243507 -0.06464252
0.33489925 0.09312022 0.010600835 0.23429912 0.18003309 0.32355762 0.10903561 -0.14897132
0.15596658 0.0076436996 0.0797227 0.28911334 0.2729414 -0.19319034 0.36796004 0.33751416
-0.18530409 0.10288113 -0.28568447 -0.017537236 -0.25025296 0.39123732 -0.38177693 -0.008090049
-0.28638992 -0.014919847 -0.40073866 -0.33925223 0.35224771 -0.0043856204 0.33072293 -0.3201369
-0.16923182 0.4006027 -0.18185268 -0.22532612 0.3324468 -0.31187865 0.16827512 -0.37339336
0.11843133 0.020612597 -0.38600886 0.36747074 -0.23727849 -0.20868143 0.40384448 -0.3682216
-0.019116938 0.35984588 -0.28687632 -0.20356083 -0.015370071 -0.35253805 0.3833729 -0.0075912774
-0.34241176 -0.08798969 -0.24845073 0.3434329 0.31681132 0.13692772 -0.032524347 0.39871603
0.3226897 0.14706373 -0.34931487 -0.1144436 -0.3012599 0.13272065 0.25165617 0.2788787
-0.09215197 -0.14165944 0.22194028 0.20416844 0.40645015 -0.24695276 0.38200444 -0.24009348
0.10633105 -0.25238848 -0.4004391 0.29655433 0.04138267 0.13297015 -0.13375995 -0.06879455
-0.1483675 -0.20634857 0.35243946 -0.23392509 -0.018053979 -0.14431477 -0.40733033 0.21331728
0.4029644 -0.123576015 -0.3659932 0.044566274 -0.2614115 -0.08900687 -0.23597027 -0.038563102
0.013032585 -0.34553102 -0.3526158 -0.13358676 0.28668565 -0.07088187 -0.10531813 -0.11203754
-0.27304435 -0.20968279 -0.3259516 -0.37671658 0.36695915 -0.25951576 -0.10947186 0.12065607
-0.11784941 0.18238348 0.34974903 0.04846677 0.3610432 -0.14047626 -0.02642715 -0.09207761
0.12599671 -0.2553925 0.39941484 0.06075883 -0.33077633 0.38281828 -0.19618379 0.16239774
-0.011693746 -0.13906524 -0.18273813 -0.35009402 0.072044045 0.06504542 0.3847949 0.12864012
-0.25252765 0.068243176 0.3188761 0.24919236 0.35658854 -0.13605422 0.333624 0.09668177
0.08267027 -0.2656073 -0.15073049 0.04480502 -0.40133077 0.1705656 -0.2652993 -0.06947389
00000000: ba25 ac3e 1057 a8be 3e37 09be e4c5 b1bd
00000010: 2ce0 6d3e 7c23 2bbe ec81 093e 4a39 a33e
00000020: 8ee1 c93e f036 123e 30ae a03d 3606 0dbe
00000030: 082b 3c3e 8ba8 29be 02c2 933e 8097 06bc
00000040: 04ba a9be e654 a83e d0bc 18be 66c0 883e
00000050: d80a 9abd 5a4b c63e ae8f c73e 8007 853e
00000060: b44a a9bd 0037 003b 9e6d 3abe 009a 8e3a
00000070: 98c5 bd3e b08b 8b3d b830 993e 57b3 b3be
00000080: 9853 4e3e 0c8f b8be 6884 113e 1134 ccbe
00000090: 30b1 97bd 08b8 96be c8a7 55be 0617 d03e
000000a0: 0000 d4bd f077 603e fa38 09be af88 3cbe
000000b0: 4558 c9be 50cc 77bd e6c2 ca3e 7e22 33be
000000c0: 900c bcbd 738a adbe bf9f c6be 8610 c93e
000000d0: c0ff 4d3e 2eda a1be 9471 9a3e 2e6d 0fbe
000000e0: 9cec 0f3e 10fb 97bc 40b1 923d 65c7 c5be
000000f0: 0a68 0abe c4e3 a8be de8e c53e 984d 123e
00000100: 741b 1e3e 34bf 653e 7243 86be f66f a23e
00000110: b0b4 813e bc35 3a3e 0e5f c93e c0dc ba3d
00000120: 5812 1bbe b6a7 883e 402e 77bc 5659 94be
00000130: 80de 16bc 3059 9fbd 1467 adbe 15b0 8bbe
00000140: f036 893e 8802 06bd 1882 f83d 4636 8ebe
00000150: cc7b b8bd 5892 c03d e2b9 ca3e 8090 6dbc
00000160: 8094 723d d40d c9be 958f 70be 4e3e a8be
00000170: 2815 923e 5897 6c3e ee34 aa3e 4c63 84bd
00000180: ea77 ab3e d0b5 be3d 20af 2d3c 1cec 6f3e
00000190: 985a 383e 58a9 a53e 104e df3d f08b 18be
000001a0: b4b5 1f3e 0078 fa3b a845 a33d aa06 943e
000001b0: fabe 8b3e b0d3 45be 4265 bc3e a8ce ac3e
000001c0: 5bc0 3dbe 58b3 d23d 3c45 92be 40aa 8fbc
000001d0: 2821 80be 4250 c83e 4478 c3be 208c 04bc
000001e0: b3a1 92be 6072 74bc 9e2d cdbe 78b2 adbe
000001f0: d059 b43e 40b5 8fbb 8454 a93e fce8 a3be
00000200: 1b4b 2dbe cc1b cd3e 9737 3abe e4bb 66be
00000210: 7836 aa3e 8fae 9fbe 5050 2c3e 6a2d bfbe
00000220: 208c f23d c0db a83c f4a2 c5be 2025 bc3e
00000230: 22f9 72be 96b0 55be b4c4 ce3e 8b87 bcbe
00000240: 209b 9cbc b83d b83e 74e1 92be 4072 50be
00000250: c0d2 7bbc de7f b4be 7449 c43e 40c0 f8bb
00000260: 9850 afbe f033 b4bd de69 7ebe 70d6 af3e
00000270: 1835 a23e c836 0c3e 4038 05bd 8224 cc3e
00000280: 9637 a53e e097 163e 66d9 b2be 6861 eabd
00000290: bd3e 9abe ece7 073e 14d9 803e 30c9 8e3e
000002a0: 2cba bcbd 2c0f 11be 5044 633e 8811 513e
000002b0: 3c1a d03e 2fe1 7cbe 1696 c33e 11db 75be
000002c0: 18c4 d93d 1039 81be 5b06 cdbe f8d5 973e
000002d0: e080 293d 5429 083e 5ef8 08be 28e4 8cbd
000002e0: a6ed 17be 0a4d 53be f272 b43e 0f8a 6fbe
000002f0: f0e5 93bc 40c7 13be 9a8d d0be d86f 5a3e
00000300: 5a51 ce3e 6c15 fdbd 7663 bbbe 208b 363d
00000310: bad7 85be 3c49 b6bd 31a2 71be 58f4 1dbd
00000320: a086 553c 71e9 b0be 0f8a b4be f8ca 08be
00000330: 76c8 923e 842a 91bd 08b1 d7bd f073 e5bd
00000340: 78cc 8bbe 16b7 56be 21e3 a6be ffe0 c0be
00000350: 12e2 bb3e 40df 84be c832 e0bd 881a f73d
00000360: 085b f1bd bcc2 3a3e 4e12 b33e 1885 463d
00000370: a8da b83e 02d9 0fbe c07d d8bc 3093 bcbd
00000380: 4805 013e cec2 82be 1a80 cc3e 40de 783d
00000390: 845b a9be c200 c43e 67e4 48be 984b 263e
000003a0: 2097 3fbc 1e67 0ebe b41f 3bbe 863f b3be
000003b0: d48b 933d 8836 853d d603 c53e 3cba 033e
000003c0: 4e4b 81be 14c3 8b3d ba43 a33e 482c 7f3e
000003d0: c692 b63e cc51 0bbe c4d0 aa3e 1801 c63d
000003e0: 084f a93d aefd 87be 1859 1abe 7885 373d
000003f0: 3a7b cdbe c0a8 2e3e 4fd5 87be 5448 8ebd

linear_out.bias f4 [121]
0.2310623 0.32596934 -0.14053187 0.40145218 0.0051261783 -0.09901407 -0.36500993 -0.40281913
-0.15434289 -0.16736656 -0.38742906 -0.07992259 0.061866164 -0.34766826 0.0030992627 -0.09845677
0.30473423 -0.08128497 -0.3249439 -0.16884832 0.19569671 0.32672048 -0.23339054 0.121064186
-0.044242322 -0.07916787 -0.32383385 -0.30993688 0.009085298 -0.116975546 0.24544108 -0.07744062
-0.053843886 -0.06457463 0.3542114 0.085693955 0.3450613 0.28638756 -0.10472602 0.2379582
-0.016015291 -0.23525083 -0.3092791 0.33703524 0.18982285 0.38230813 -0.3426091 0.1499207
-0.07331273 -0.15128207 -0.34160528 0.2684344 0.07815543 -0.2826051 -0.06739843 -0.23206124
-0.25441432 0.35245585 0.17557865 0.25142932 0.19845778 -0.035623103 0.24212164 0.05997598
0.33225614 -0.25084758 -0.38172495 0.046298653 -0.19591267 -0.05189532 0.17917585 0.102700174
-0.2934618 -0.18370908 0.36024803 0.38587338 -0.40095556 0.23492265 0.10007286 -0.19961253
0.06358683 0.2608788 0.321203 0.075285584 -0.23282896 0.3697269 0.31561458 0.0018838048
0.06896463 -0.20763825 -0.24982888 -0.30081567 0.024631739 0.22574908 0.31463027 -0.3663319
0.025159657 -0.3942263 -0.21054319 0.19425327 -0.24494335 0.054909885 0.27198493 0.2216661
-0.16858596 0.18626326 -0.20212355 -0.27275068 -0.2924244 0.13194066 0.34603733 0.12866867
-0.374246 0.003288865 -0.4017866 0.09756732 -0.35508132 0.019757718 0.078208774 -0.3509985
-0.22260953
00000000: 989b 6c3e 74e5 a63e 96e7 0fbe 248b cd3e
00000010: 80f9 a73b e4c7 cabd 95e2 babe 4f3e cebe
00000020: 100c 1ebe 2462 2bbe 1a5d c6be 74ae a3bd
00000030: 6067 7d3d 9301 b2be 001d 4b3b b4a3 c9bd
00000040: 2006 9c3e bc78 a6bd 0c5f a6be 93e6 2cbe
00000050: b864 483e e847 a73e eefd 6ebe 80f0 f73d
00000060: 7037 35bd c422 a2bd 8dcd a5be 0cb0 9ebe
00000070: 80da 143c e090 efbd e854 7b3e 3099 9ebd
00000080: 688b 5cbd b43f 84bd 325b b53e 5080 af3d
00000090: e0ab b03e 64a1 923e 987a d6bd 50ab 733e
000000a0: 8032 83bc 98e5 70be d559 9ebe e28f ac3e
000000b0: ec60 423e e4bd c33e 766a afbe d084 193e
000000c0: fc24 96bd b0e9 1abe e3e6 aebe 3c70 893e
000000d0: f40f a03d 9eb1 90be 3008 8abd 76a1 6dbe
000000e0: 9842 82be 1875 b43e e4ca 333e 58bb 803e
000000f0: 8438 4b3e 88e9 11bd bcee 773e 60a9 753d
00000100: 7a1d aa3e 186f 80be 7471 c3be a8a3 3d3d
00000110: 559d 48be 3090 54bd e079 373e 7854 d23d
00000120: a040 96be 3c1e 3cbe 6e72 b83e 3291 c53e
00000130: 0c4a cdbe 908f 703e 00f3 cc3d 3a67 4cbe
00000140: d039 823d e891 853e b874 a43e 542f 9a3d
00000150: b76a 6ebe d84c bd3e 3c98 a13e 00ea f63a
00000160: 543d 8d3d 1f9f 54be 24d3 7fbe 8304 9abe
00000170: 80c8 c93c c42a 673e 3817 a13e db8f bbbe
00000180: a01b ce3c 08d8 c9be a298 57be 54ea 463e
00000190: 6ed2 7abe 30e9 603d 9c41 8b3e 70fc 623e
000001a0: cca1 2cbe ccbb 3e3e 7af9 4ebe faa5 8bbe
000001b0: a7b8 95be 741b 073e ce2b b13e b8c1 033e
000001c0: 2c9d bfbe 008a 573b f9b6 cdbe 60d1 c73d
000001d0: 38cd b5be f0da a13c ec2b a03d 13b6 b3be
000001e0: c1f3 63be
